anomaly_detection/model/lstm_therm_detector.pt (torch, 886615 bytes, 12 tensors)

lstm.weight_ih_l0 f4 [512, 9]
000000 82 6b 90 3d cd 5c 0e 3d 15 0d 1d 3c e6 a8 9b 3d
       0.070517555 0.03475647 0.0095856385 0.07600574
000010 3d 3f 6f 3d a4 58 bb 3d ff 72 ec 3c 3c ce 04 3e
       0.058409918 0.09147766 0.028863428 0.12969297
000020 ec 62 b7 3d f4 50 86 bd d0 3f 9c bd c3 08 ae bd
       0.08954415 -0.06558409 -0.07629359 -0.08497765
000030 96 b0 44 bc 6b 70 15 be b5 a9 a2 3c b1 21 e2 3c
       -0.012004992 -0.14593665 0.019856313 0.027603956
000040 0d 1b 09 bd 50 96 26 3d 0b b5 95 3d 79 58 f1 bd
       -0.033473063 0.040670693 0.07309922 -0.11784453
000050 84 e9 f5 3d 17 18 52 bc 8f 90 2a bb 89 17 c9 bd
       0.1200743 -0.012823126 -0.0026026105 -0.09818942
000060 72 60 91 3c d9 c6 96 bd 66 ef f8 3b 43 2d bb bd
       0.017746184 -0.07362146 0.007596898 -0.09139492
000070 84 eb 4e 3e ac 40 4f 3d a3 10 06 3e ba c8 0f 3e
       0.2020703 0.050598785 0.13092284 0.14041415
000080 e3 5f 83 bd 21 54 d0 3d 3e e1 96 3d 06 d5 95 3d
       -0.06414773 0.10172296 0.0736718 0.073160216
000090 49 0e e6 bc 37 aa 96 bd 05 91 c8 bd 17 b3 09 bd
       -0.028082984 -0.07356685 -0.09793285 -0.03361806
0000a0 68 30 25 3d 34 d1 d4 3d 24 52 56 3c ff 1d 0f 3e
       0.040329367 0.10391465 0.013081107 0.13976286
0000b0 92 7e 92 3d 26 b8 3e be 9b 56 13 3c 19 69 a3 3d
       0.071530476 -0.18624935 0.008992816 0.0797903
0000c0 4f 26 c4 3c 21 37 8a 3d 8d 1e 50 3d 95 70 e2 3d
       0.023944048 0.06748796 0.050810385 0.110566296
0000d0 58 a9 93 3d c1 86 a2 3d 8c 88 1e be 42 5d b8 3d
       0.07210034 0.079358585 -0.15481776 0.090021625
0000e0 35 de 9d 3d bc 75 ad bc af db 62 3d c9 7c 8a 3d
       0.07708398 -0.021174304 0.055385288 0.06762082
0000f0 4d 26 0f 3d 9b c8 b3 ba 85 30 79 3d 80 2b 7e bd
       0.034948636 -0.0013716401 0.060837287 -0.062053204
000100 a6 81 6b be 94 19 c6 bc fa 6a 80 bd ae 85 e9 3c
       -0.22998676 -0.024182118 -0.06270404 0.028506126
000110 e7 6a 83 bb c9 33 a7 3a 7d 80 75 3d 3d 8f ad bd
       -0.0040105465 0.0012756522 0.05993699 -0.08474586
000120 fe dd 4e bd 8d 79 55 bd 3f 85 9d bc ba 8b d5 3c
       -0.050504677 -0.052117873 -0.019228576 0.026067603
000130 3e ed a0 3b e1 30 b7 bc 73 d1 ee 3c 08 1f 2a 3d
       0.004911094 -0.022362174 0.029152608 0.0415335
000140 83 6e ed 3b d5 3d 12 bc 03 fc 28 be 07 03 eb bd
       0.00724584 -0.008925875 -0.16502385 -0.11475187
000150 83 f0 d4 bd c6 0b 9c bd c5 3d d3 3b 31 99 ce 3d
       -0.103974365 -0.07619433 0.0064465725 0.10087813
000160 dc a9 15 3d 53 9c 89 3d c2 85 2a 3e 73 bd b1 3e
       0.036538944 0.067192696 0.16652587 0.3471485
000170 2b d4 49 bd 09 cf 49 3d 6d 30 91 3e 47 6f 9d 3c
       -0.049274605 0.04926971 0.28357258 0.0192181
000180 9a 1b 14 be 0c c1 07 be eb a1 12 bd 74 38 84 3d
       -0.14463654 -0.13257235 -0.03579895 0.0645608
000190 95 ce fa bd 94 5e 11 3e 08 fa 3d 3d 37 5e 6b bc
       -0.12246434 0.14196235 0.046381027 -0.014365724
0001a0 9e d7 9b bd 5a 44 55 3d 19 fb a2 bc 29 cb ba 3c
       -0.07609485 0.05206714 -0.019895123 0.022801952
0001b0 82 79 72 3d 70 38 45 3d d6 01 c5 3a d9 65 ab bd
       0.05919791 0.048149526 0.0015030454 -0.08369035
0001c0 95 75 f5 3b 91 a2 d0 bd e9 64 6b 3c 52 58 17 bd
       0.0074908235 -0.10187257 0.014367321 -0.036949463
0001d0 fe 3c 21 3d cb 61 14 be a7 60 6f bd cb 7c 76 bd
       0.039364807 -0.1449043 -0.058441784 -0.060177606
0001e0 74 36 50 bb ca 07 ff 3d cf 87 9d 3d 19 4f 1e bc
       -0.0031770738 0.124526575 0.07691919 -0.009662413
0001f0 f5 fe d2 3d ad 26 ba 3d 75 f0 8b bd f7 26 9a 39
       0.103025354 0.09089408 -0.06832973 0.000294022
000200 4d 1d 10 3e 27 6d 9e bd e8 c3 e5 bd 00 5b eb 3c
       0.14073677 -0.07735663 -0.11219007 0.028729916
000210 b3 83 43 bd d1 4a a0 3d 50 71 bc bc 14 65 62 bd
       -0.04773302 0.0782677 -0.02300325 -0.055272177
000220 3a 36 60 3e f6 b7 f9 bc 78 b8 53 3d dd 41 8e 3d
       0.21895686 -0.030483227 0.051689595 0.06946156
000230 4d 58 a9 bc b6 15 da 3d 93 5a 67 bd 40 9c fe bc
       -0.020671988 0.10648672 -0.056482863 -0.031080365
000240 fe 73 e8 bd fd 5d 39 bd 36 75 6f bd a7 79 b2 bc
       -0.11350249 -0.04525565 -0.05846139 -0.021786524
000250 93 14 8c 3d 72 44 9a 3d c1 75 08 3e 5b 6b 16 3e
       0.06839862 0.07532586 0.1332617 0.1468939
000260 51 3e 07 bd f2 df 5e 3e e3 f1 13 3d d8 b4 1d 3e
       -0.033018414 0.21765116 0.036119353 0.15401018
000270 be 82 67 3d 25 97 29 bd 4f 62 92 3b d9 b6 e4 bd
       0.05652117 -0.04140391 0.0044672857 -0.11167688
000280 c5 d6 50 be 75 1a d1 bd 52 35 65 bd f6 de fc 3d
       -0.20394428 -0.102101244 -0.055959053 0.12347214
000290 e3 cb a7 bc 5e e4 1a 3d 99 a1 1d 3e 16 31 a6 3d
       -0.020482963 0.037815444 0.15393676 0.08114831
0002a0 33 0a 87 3d 0c 22 41 bd f0 8f 81 3d 87 62 66 3d
       0.06593742 -0.04715161 0.06326282 0.056246307
0002b0 08 44 db be 30 7f 83 3d 26 4a 1f bd 7d 18 9d be
       -0.4282534 0.064207435 -0.038889073 -0.30682746
0002c0 17 ac d5 bc a4 42 4c bd 11 db 2c bc e9 26 f7 b9
       -0.026083035 -0.04986824 -0.010550276 -0.00047140502
0002d0 bd c1 49 3d 1c 59 b5 3d 53 dc 04 3d 13 bd 0e 3d
       0.04925703 0.08854887 0.03243668 0.034848284
0002e0 9b 56 d9 3b 31 ba 8a bc 8b 38 3f 3d db 60 19 3b
       0.0066326386 -0.016934486 0.046684783 0.0023403678
0002f0 1f 04 9e bc 34 f4 33 be 93 00 b7 bd 3a c7 48 bd
       -0.019289074 -0.17573625 -0.089356564 -0.049018122
000300 a5 a1 0d be 17 02 91 bc 29 cd 6b 3d 77 4b c6 3d
       -0.13831194 -0.017701192 0.057568703 0.096823625
000310 15 96 d6 bc 56 0a 2d bc 35 43 f8 bd 21 b5 2b bd
       -0.026194612 -0.010561546 -0.12122194 -0.041920785
000320 7e 23 66 3d 15 08 c7 bd 92 e5 26 bd d6 6b 05 bd
       0.05618619 -0.097183384 -0.04074628 -0.032573543
000330 fe 7e d3 3a 33 e6 54 3c d5 59 be 3c 67 8f 04 3e
       0.0016135869 0.012994337 0.023236195 0.12945329
000340 ba 61 72 bc f7 81 82 bd 54 d9 f2 3d 98 60 11 3d
       -0.014793808 -0.06372445 0.11857858 0.03549251
000350 bc 36 dd 3d c6 2b b5 3d 09 58 3a 3d ad 00 31 3d
       0.108014554 0.0884624 0.045494113 0.043213535
000360 6d bb e8 bc 07 de a7 be 6e a8 0c 3d a9 7f 21 be
       -0.028409684 -0.3278658 0.034340315 -0.15771355
000370 c0 da 1c be 03 ad 34 3d d5 dd 38 bd 8d 62 82 bc
       -0.15317822 0.04411031 -0.04513343 -0.015916133
000380 e3 a0 02 3b 6c 9c 1f 3e 5b 16 a0 3d 39 d8 24 3e
       0.0019932322 0.15587014 0.07816764 0.16098107
000390 c9 1e d6 3d 4b 92 ad 3d ea 5b e8 bb 2c fb 3b 3d
       0.104550906 0.08475169 -0.007091035 0.045893833
0003a0 d9 84 43 3d 9e d4 58 bd e9 9e 2d be cb 4f 73 bd
       0.047734115 -0.052937143 -0.1695515 -0.05940227
0003b0 dc c9 05 3e ed b0 09 bd 64 94 f5 3c fb 3d 44 bc
       0.13065284 -0.033615995 0.029977985 -0.011977668
0003c0 6f 39 c6 3d 54 52 1c 3d 7c 13 a1 bc 64 6d d0 3d
       0.09678923 0.03816445 -0.019662611 0.101771146
0003d0 89 68 d2 3d 0a 46 36 3d dc 8b 79 3d 3f a7 01 3e
       0.10273845 0.04450039 0.060924396 0.12661456
0003e0 4d c2 b0 3d d3 fd 95 b9 80 47 94 bd aa bd d5 3d
       0.0863081 -0.00028608608 -0.072402 0.10436566
0003f0 02 09 ea bd 77 09 89 3d 9b 82 bc bd c6 78 23 be
       -0.11427499 0.066912584 -0.092045985 -0.1596404

lstm.weight_hh_l0 f4 [512, 128]
000000 6d a1 4f bc a4 fb c0 bc 87 5a fe 3c 31 9e 7b bd
       -0.012672764 -0.023557492 0.031049026 -0.06143016
000010 21 19 9d 3d 09 ad f0 3c fa e0 e5 bc db 8c 80 3d
       0.076708086 0.029379385 -0.028061379 0.06276866
000020 57 95 fb 3d 7d 10 44 bd 3f d8 08 bc 09 c0 76 ba
       0.12284344 -0.047867287 -0.008352338 -0.0009412771
000030 34 a3 0c 3d 62 72 57 3d 19 d3 92 bb 21 b6 ce bd
       0.03433533 0.05259932 -0.004480731 -0.10093332
000040 46 7f e3 bd bc a2 a3 3c 41 77 1a 3d 27 26 e4 3d
       -0.1110826 0.019975059 0.037711386 0.111400895
000050 a8 6b 42 3c ec 7a 15 3d 04 b8 1a 3d b6 4e 8f ba
       0.011866488 0.03649418 0.037773147 -0.0010933492
000060 2e e8 56 bb 5e c7 5a bd 40 c8 ad bc f6 f6 92 3c
       -0.0032792198 -0.053412788 -0.02121365 0.017940026
000070 02 4b e7 3d a3 31 94 3c 65 e0 e1 bd d4 ec eb bd
       0.112936035 0.018090075 -0.11029128 -0.11519781
000080 d1 72 c0 3d 85 61 cf 3d d1 d5 83 bc 48 4c 5a be
       0.093968995 0.10126022 -0.016093167 -0.21318161
000090 af f5 2f bd 6b 04 29 be 01 a4 83 3d bc ab a9 bd
       -0.04295891 -0.16505592 0.06427766 -0.08284709
0000a0 a2 2d fd 3d 32 82 4f bd 36 50 ac bd 85 2b f8 bc
       0.123622194 -0.050661273 -0.084137365 -0.03029419
0000b0 07 c0 07 bd e7 b5 80 bd c7 61 a1 3c d1 35 08 3d
       -0.033142116 -0.06284695 0.019699944 0.03325445
0000c0 1d cc 66 bc 6a 7b ad 3b da ad 7a 3c 35 e2 c2 3d
       -0.01408675 0.005294253 0.0153002385 0.09515802
0000d0 27 5c 04 3e 79 3c 91 3d 5b 37 94 bd 50 64 74 3d
       0.12925778 0.07091612 -0.07237121 0.059665978
0000e0 dd 51 98 3b 45 13 0f bd 32 21 5d 3c d4 25 71 3d
       0.0046484307 -0.034930486 0.013496684 0.058873966
0000f0 6a 2e 12 3c d9 7c 7d bc 7a 16 cf bd a6 86 19 bd
       0.008922199 -0.0154716605 -0.10111709 -0.037481926
000100 df e7 e1 3c c6 be e8 b9 a7 6f 00 be b8 7e 96 bb
       0.027576385 -0.00044392626 -0.12542592 -0.004592743
000110 db 3c fa bc 51 a2 b4 bd 84 27 29 bd 90 51 bb bd
       -0.030546596 -0.08820022 -0.04129745 -0.09146416
000120 a7 8a e1 3c e6 46 be bd 2a cd a4 3d a2 f1 d6 3d
       0.027531935 -0.092908666 0.080469444 0.104953066
000130 26 2a dd 3d c9 19 de 3a fb 5d b0 3b c7 57 09 be
       0.10799055 0.001694494 0.005382297 -0.1341239
000140 42 72 67 bd 43 34 fd bd 3b c4 57 3d 11 c3 c0 3d
       -0.05650545 -0.12363484 0.052677374 0.09412206
000150 17 2f e3 3d b7 a6 ad 3d 05 16 3f 3d 8c 32 1e 3d
       0.11092966 0.08479064 0.04665186 0.038622424
000160 8a 31 63 3c e3 dd 18 bc 4d 62 7b bd 1d 82 3b 3d
       0.0138667915 -0.009330246 -0.061373044 0.045778383
000170 a1 33 09 be 7e ac 9e bd fa 1d 34 bc 3b 75 8f bd
       -0.13398601 -0.07747744 -0.010993475 -0.07004782
000180 f8 6e 18 3d e2 ea 3d 3d af 16 2b bd f6 3a 5f bd
       0.037215203 0.04636658 -0.04176968 -0.05449959
000190 1d af d5 bd 47 52 c7 bd 83 6e 02 bd 3a 5f 93 bc
       -0.10433791 -0.0973249 -0.031843673 -0.017989744
0001a0 f1 8d 23 bd 41 82 7e bd 2e 3b e9 bd 70 15 39 3d
       -0.039930288 -0.06213594 -0.11388241 0.04518646
0001b0 8e c0 bb 3c 67 db 79 3d 07 6f 51 bd f5 6e 26 bd
       0.022918966 0.061000254 -0.051131275 -0.04063316
0001c0 ab b8 45 bc 79 c7 5e bd 03 2a 15 bd 63 84 bc 3c
       -0.012067954 -0.05438945 -0.03641702 0.023012346
0001d0 4a 2b e0 bc f6 43 81 bb de cc a5 bc 13 19 27 bd
       -0.027364392 -0.003944869 -0.02023929 -0.040795397
0001e0 24 23 2d bc a9 f3 fd 3d 27 99 80 3c b1 f2 9a bc
       -0.01056746 0.1239999 0.015698029 -0.018914552
0001f0 0b c4 77 bd 03 95 94 bd 11 bf b3 3d 6f 2b c3 bd
       -0.060489696 -0.07254984 0.087766774 -0.09529769
000200 a7 4c 8c bd fd 9b d0 bb 6e d3 d8 3b f4 c2 d3 3c
       -0.06850558 -0.0063662515 0.0066170013 0.025849797
000210 35 05 b7 bd d1 3b 02 be f3 f5 af bd e7 7c 62 3d
       -0.0893654 -0.1271813 -0.08591833 0.055294897
000220 4d 24 7b 3d b0 b3 48 3d ab c7 a1 bd af 3e d0 3c
       0.061313916 0.04899949 -0.07899412 0.025420515
000230 d5 f7 59 3d ef d4 7a 3d 91 44 e3 3d b6 dc cf 3d
       0.053214867 0.061238226 0.110970624 0.10149519
000240 d5 d3 e8 3d 15 fd 50 3e 19 b6 2b bd 13 04 36 bd
       0.11368529 0.20409043 -0.04192171 -0.04443748
000250 3c 22 ef 3d 1a c1 13 3e 3e 88 cb bc 81 47 cd bc
       0.116764516 0.14429131 -0.024845239 -0.02505851
000260 c9 e4 9d bc f8 30 65 3d 09 bb 89 3d a3 50 20 3d
       -0.019274132 0.055954903 0.06725127 0.0391394
000270 e1 47 06 3d 77 90 c8 3d 26 bd 01 3e 08 63 4c bd
       0.032783393 0.097931795 0.1266981 -0.04989913
000280 ce 5e 28 bd 0b b3 d4 3c 12 bf 31 3d 72 f0 1d bd
       -0.041106038 0.02596428 0.04339511 -0.038559385
000290 79 d0 95 3d 1b 54 c6 3d d3 d3 17 3d 50 87 68 3d
       0.07315154 0.096840106 0.037067246 0.05676967
0002a0 1c 1c da 3d 45 24 e4 bb 2d f1 b6 bd 63 34 ca bd
       0.10649893 -0.0069623315 -0.089327194 -0.09873273
0002b0 d5 ef 31 bc 79 ce 14 3d f9 94 98 3a ad 8e 69 bd
       -0.010860403 0.03632972 0.0011641077 -0.05702083
0002c0 95 0e 16 3d 17 bd 26 be 52 55 a3 bc 11 b2 6f 3d
       0.036635 -0.1628307 -0.019938145 0.058519427
0002d0 c2 70 b7 3d dc 14 e9 3d 6e 95 03 3d da 13 08 bd
       0.08957054 0.11380932 0.03212493 -0.033222057
0002e0 9c 44 1e 3d 5e 97 75 3d 31 c9 7b 3d 5b ff 19 bd
       0.03863965 0.059958808 0.061471168 -0.03759704
0002f0 ea bc 9f bd ca e3 d7 bd eb 66 4a bd 55 5a 6e 3d
       -0.077997044 -0.10541494 -0.049414556 0.058191616
000300 65 49 b9 bc 29 89 1d bd c2 6e 1f bd a5 b5 af bd
       -0.022618005 -0.038460884 -0.038923986 -0.08579568
000310 db ae a7 bc 53 d1 75 bc ec 31 39 bd 57 83 b9 3d
       -0.02046912 -0.01500352 -0.045213625 0.09058254
000320 cd eb 8b 3d 63 3b b6 bd bf 52 b5 3d 36 b3 1c 3d
       0.06832085 -0.08898046 0.08853673 0.038256846
000330 4b fb 60 3d a6 49 36 bd c0 01 ef bd c7 a4 65 bd
       0.05492715 -0.04450383 -0.11670256 -0.056065347
000340 da 05 09 3e dc 84 be 3d 7d cd 75 bd 9f cf db bc
       0.13381138 0.09302685 -0.060010422 -0.0268324
000350 d4 6f 32 bd 70 a6 30 be 73 a6 23 bd 96 5b 86 3b
       -0.04356368 -0.17250991 -0.03995366 0.0041002734
000360 b6 11 b9 3d bd 4c 02 3e 93 83 ce bc 4c 42 4f 3d
       0.09036581 0.12724586 -0.025209224 0.050600335
000370 78 1d ca 3d 74 8a ec 3c c7 c1 3e bc b1 e5 cf bd
       0.09868902 0.028874613 -0.01164288 -0.10151232
000380 05 ff d6 3b a4 1a 76 bd 97 6e 10 bd e1 83 01 3e
       0.0065611624 -0.060084 -0.035261717 0.12647964
000390 6e fb 9c 3a 3c f7 a7 bd 6f 8b 57 bc 84 e5 31 3e
       0.0011976787 -0.08201453 -0.013155802 0.1737271
0003a0 01 77 87 3d c9 9f 58 3d cb 2c 14 bd 47 62 ac bc
       0.06614495 0.052886758 -0.03617553 -0.021042956
0003b0 6b 65 02 be c1 31 8d 3d b5 76 67 bd 5f 0d bb bd
       -0.12734 0.068942554 -0.056509692 -0.0913341
0003c0 90 02 9d 3d a6 4b 36 3d 86 18 b6 bb d9 a5 83 bd
       0.076665044 0.044505738 -0.0055571226 -0.06428117
0003d0 84 aa 5f 3d 12 cb 24 bc b7 b7 d2 bd 74 9f ce bd
       0.054605976 -0.010058181 -0.10288947 -0.10089007
0003e0 07 7f e6 3d 1a 47 d7 bd 5c d4 bc 3d ee d3 81 bc
       0.11254697 -0.105116084 0.09220192 -0.015848126
0003f0 38 3d 5a bc e7 d0 e8 bd a5 cf bd bd 81 46 84 3c
       -0.01332026 -0.1136797 -0.09268121 0.0161469

lstm.bias_ih_l0 f4 [512]
000000 2b 42 44 bd dc 15 af 3d 5f bd 76 3d a8 ee 1e 3e
       -0.047914665 0.08549091 0.060239192 0.15520728
000010 51 ce bf 3d 3f fd dd bc f2 99 9e bc c9 5f f2 3c
       0.093655236 -0.027098296 -0.019360516 0.02958669
000020 d3 49 e7 3d 0d c7 da 3d ef 85 e0 bc 0f 9d 02 bd
       0.11293378 0.10682497 -0.027407615 -0.031888064
000030 56 a8 77 bd bb 1f 20 3d bc cf 5e bc 04 98 bd bd
       -0.060463272 0.03909276 -0.013599332 -0.0925751
000040 0b a7 98 bb 6f 9f c3 bd 1d 69 d0 3c 63 47 b6 bc
       -0.004658585 -0.09551894 0.025440747 -0.022250837
000050 f6 23 22 3e 6e 5c 7d 3d eb 06 21 bd 95 bb 23 3d
       0.1583403 0.061855726 -0.039313238 0.039973814
000060 e2 74 d7 3d eb c4 53 3d ab a6 91 bd 1d d9 e8 bc
       0.105203405 0.051701467 -0.071118675 -0.02842384
000070 b6 79 85 3d 7a 49 65 be a7 7c 42 3d 21 eb 80 3d
       0.06517355 -0.2239131 0.04748216 0.06294847
000080 88 16 d4 3d 35 c0 bd 3d fb 89 c0 bc 48 4e 38 bd
       0.1035586 0.09265176 -0.023503294 -0.04499653
000090 90 bf f8 3d f5 e1 84 bd 65 94 3a bd 2a 55 3a bd
       0.12145913 -0.064884104 -0.045551676 -0.045491375
0000a0 d6 98 32 bc ec bc b6 3d 4d 25 37 bd 18 50 c2 3d
       -0.010900697 0.08922753 -0.044713307 0.09487933
0000b0 48 79 0c 3e 5d ea 21 3e 8b 1b 0d bd f5 35 a6 3d
       0.1371814 0.15812059 -0.034450095 0.0811576
0000c0 2c 4f fd bd 36 38 c8 3d 39 56 43 bd 23 ed f9 3d
       -0.123686165 0.097763464 -0.04768965 0.12203433
0000d0 66 5c 96 bb 7f e4 0e bd 47 4b 75 bd ff fe a9 bc
       -0.0045886515 -0.03488588 -0.059886243 -0.020751474
0000e0 7c 22 9d bd 01 2b 45 3d fd 04 db 3c a6 56 da 3a
       -0.07672593 0.048136715 0.026735777 0.0016657903
0000f0 3c 5f ad 3d 7d 15 b1 3d 1d 13 f2 3b 9d 33 41 3d
       0.0846543 0.08646677 0.0073875324 0.047168363
000100 0e 13 3c 3d f3 03 b8 bd 53 8c db 3c 8b 83 64 3d
       0.04591661 -0.08985128 0.02680031 0.05578951
000110 95 66 98 3a 7a 9c e6 bc 7c a5 2d 3d 95 36 0b bd
       0.0011627252 -0.028150786 0.042394146 -0.0339876
000120 0d 0d 54 bd 90 29 92 bb 2f c9 bf 3c b5 0d e9 3d
       -0.05177026 -0.004460521 0.023411362 0.113795675
000130 09 e2 14 3e fe fb 82 bd 11 a1 09 3d 04 21 fe 3d
       0.1453935 -0.0639572 0.03360087 0.12408641
000140 ee b8 8e 3d 29 bf 50 ba af c4 28 3d d8 16 fa 3d
       0.06968866 -0.00079630554 0.041203197 0.12211388
000150 48 f0 ae 3d 4d c0 17 3e ea 20 89 3c 4c b4 ca bd
       0.08541924 0.1481945 0.016739327 -0.0989767
000160 0e 78 93 bd b9 a4 70 3d 11 30 af 3b 6b 58 1a bd
       -0.07200633 0.05875084 0.005346306 -0.03768198
000170 13 3b 69 bd 3d e0 bb 3d 0a e3 e6 3c 51 40 a8 bd
       -0.056941103 0.091736294 0.028184433 -0.082153924
000180 e3 30 43 3c ad 59 64 bd 4c 42 3f bd b4 80 64 bd
       0.011913511 -0.055749584 -0.046694085 -0.055786803
000190 d3 ca 12 3c 41 46 b1 bd 82 de 72 3d 71 be 13 bc
       0.00895949 -0.08655978 0.05929423 -0.009017573
0001a0 b9 1e 9b bd 7e da 12 bd db 1b 3b 3d 4a 6e 74 3c
       -0.07574219 -0.0358529 0.045680862 0.014918873
0001b0 c6 e3 96 bc 0e 2a 44 3d 2e 7e 1b be 54 e2 23 bc
       -0.018419158 0.04789167 -0.15184852 -0.010002691
0001c0 5b 3a ac bd 96 c4 10 3e 42 a9 92 3d f5 cf 3b 3d
       -0.08409568 0.14137492 0.071611896 0.04585262
0001d0 3e 39 21 3e 31 61 16 3d 10 27 dd 3c f7 7f 85 3d
       0.15744492 0.036713783 0.026996166 0.06518548
0001e0 49 ba d5 3c e0 aa d9 bc c1 95 cd 3d e8 d2 40 bc
       0.026089804 -0.026570737 0.10038329 -0.011769034
0001f0 a9 84 41 3d 22 f2 8c bd 54 a7 d7 bc a6 94 c0 bd
       0.047245655 -0.06882121 -0.026324905 -0.094033524
000200 73 96 d9 bd 01 95 75 bd bb 1d 0c bd de e3 49 bd
       -0.10624399 -0.059956554 -0.03420804 -0.049289577
000210 4f c5 23 3c f3 3e 14 3d 32 4c 5c 3d c2 46 de bc
       0.0099957725 0.036192846 0.053783603 -0.02713335
000220 17 45 b5 3d fe 9c 20 be 65 8e fb 3d 13 aa 89 3d
       0.088510685 -0.15684888 0.12283019 0.06721892
000230 51 30 48 3d b1 1e 98 3b 57 35 a7 bb d8 15 c3 bd
       0.048874203 0.0046423306 -0.005102794 -0.09525651
000240 2e 62 19 be 2b e9 2f 3c c1 8f 6f bd 16 9f b7 3d
       -0.14978859 0.010736744 -0.058486704 0.0896589
000250 d2 c7 ae 3d 97 f7 97 bd 2b 50 24 bc 2d 22 87 3d
       0.085342064 -0.07420271 -0.010028879 0.065983154
000260 b8 db 74 bb f1 75 d2 3d 81 63 c6 3a 10 6b 5a 3b
       -0.0037362408 0.10276402 0.0015135856 0.0033327974
000270 8b 7c a3 3c 8b ab 55 be c3 ce bf bc 93 6d fc bc
       0.019956848 -0.2086622 -0.023414021 -0.030813968
000280 09 55 a7 3d 09 4c 9a bc e4 5a c4 3d 0a 1f 63 3d
       0.08170516 -0.018835085 0.095876485 0.055449523
000290 99 e1 61 3b b0 58 e8 bd 0c a6 57 bd be 68 58 bd
       0.0034466742 -0.11345041 -0.05264859 -0.052834265
0002a0 c7 ab d0 3c 74 fe 16 3c 7f c6 ab 3c ec a9 32 bd
       0.025472535 0.00921594 0.020968674 -0.04361908
0002b0 ae 6e 8b 3d 1d 04 47 bd 56 13 a0 3c 4f b7 9b 3d
       0.0680822 -0.048587907 0.01954047 0.07603323
0002c0 0a d2 38 bd f6 37 24 bc 3e 88 1e bd ab 0c b9 bd
       -0.045122184 -0.010023108 -0.03870415 -0.09035619
0002d0 c4 c1 7c bb 4f 2e 2a bb 79 6f 93 bd ce 25 02 bd
       -0.0038567642 -0.0025967543 -0.07198996 -0.031774335
0002e0 46 23 00 3d 6c dc e6 bd 55 d5 0a 3d d4 b6 e1 bd
       0.03128364 -0.11272511 0.033894856 -0.110212
0002f0 1a 5d 35 3d 84 20 ca 3d 89 4b a2 bd 69 15 03 3e
       0.04427824 0.09869483 -0.079245634 0.12801136
000300 12 c8 71 3d 31 12 24 3d bb 02 85 3d b3 86 a7 3d
       0.059028693 0.04005641 0.064946614 0.08179989
000310 6d 8e 4d 3d 59 51 12 bd 2f f6 30 3e df 62 76 3c
       0.050184656 -0.03572211 0.17281412 0.015038221
000320 a7 7e b5 bb 95 cf 40 bd cd df 70 bd af ad 5f 3c
       -0.00553878 -0.047072966 -0.058807183 0.013652249
000330 7d 10 04 be df c4 9e bd 2b 36 14 3c a1 30 f1 bc
       -0.12896915 -0.07752394 0.009046118 -0.029442133
000340 8a 7c 10 3e 53 7b 9b bc ae 91 e8 bc 11 18 14 3d
       0.14110008 -0.018979704 -0.028389778 0.036155764
000350 01 57 c0 3d d4 28 a1 bd de eb 11 be 03 35 04 be
       0.09391595 -0.078691155 -0.14250132 -0.12910847
000360 51 a0 00 3d f0 7b 68 3d ae 44 4e 3d fd ad 3d bc
       0.03140289 0.05675882 0.050358467 -0.011577127
000370 95 94 53 3b 63 a4 ca bd c6 55 17 bd 48 25 00 be
       0.0032284607 -0.098946355 -0.036947034 -0.12514222
000380 fa 15 32 bd 58 c9 c1 bd 17 78 f7 3c 3c 7c cd bd
       -0.04347799 -0.094622314 0.03020863 -0.100334615
000390 02 73 b1 bc 8f 6d 98 3a 41 8f 0d 3e 31 02 d5 bd
       -0.021661285 0.0011629331 0.13824178 -0.104008086
0003a0 76 f8 32 3c bf f2 77 3d b7 64 8b 3b 2e f0 dc bd
       0.0109234955 0.060534235 0.0042539495 -0.10787998
0003b0 cc 15 52 3d 3b 1a 02 3e b2 12 d3 bc d9 b7 13 be
       0.05129032 0.12705319 -0.02576575 -0.14425601
0003c0 59 80 8b 3d 00 08 84 bd cb 47 8d bd 75 ae 3d bd
       0.0681159 -0.064468384 -0.06898459 -0.046308953
0003d0 fd 13 9c 3c 30 54 e3 bd 5e b0 7a bd c3 36 81 bc
       0.0190525 -0.11100042 -0.061203353 -0.015773183
0003e0 ff 67 aa 3c e0 b1 6d bd 5a bb 28 3d db 55 38 bd
       0.020801542 -0.058030963 0.041194297 -0.045003753
0003f0 e9 60 5e bd 75 d1 c0 bb e2 b9 3c bd 76 b1 88 3d
       -0.05429164 -0.005884344 -0.04607571 0.06674473

lstm.bias_hh_l0 f4 [512]
000000 ec 78 14 bc a0 9a 14 bd 10 96 06 bd 01 11 2e 3d
       -0.009062033 -0.036280274 -0.032857955 0.042496685
000010 2f 0b b1 3d f7 97 3f bc 22 ea be bd c0 c6 6d 3d
       0.08644711 -0.011693946 -0.09322001 0.05805087
000020 2c c9 f0 bb c7 09 93 bc 2d eb fa 3c 99 64 c7 3b
       -0.0073482003 -0.017948998 0.030629719 0.00608499
000030 63 97 48 bd 92 5c c7 3d 2f 9a a4 bd 61 fe 9e bc
       -0.0489725 0.09734453 -0.08037221 -0.019408407
000040 9c 1a 38 3d 2b 73 94 bb 08 99 bf 3c 1f df 04 3d
       0.04494725 -0.0045303307 0.0233884 0.032439347
000050 92 1a 18 3e 8e 9b 42 3d 95 d9 26 3b 04 7a b2 3d
       0.14853886 0.04751163 0.002545928 0.08714679
000060 62 55 a3 3d 2f 56 45 3d fc 91 4b 3d eb e1 8e 3c
       0.0797527 0.048177894 0.04969977 0.01744171
000070 fa e7 3c 3d 5f ce e7 bd b1 2c 15 3d be 78 d6 3d
       0.046119668 -0.11318659 0.036419574 0.104722485
000080 dd 7b 9c 3d 7b 67 2c bc 0a bb b9 bd 1e bf a9 3c
       0.076408125 -0.010522719 -0.09068878 0.020721015
000090 00 06 e4 3c 8f 3e 69 bd 55 00 41 3d 81 40 89 bd
       0.027834892 -0.056944426 0.047119457 -0.06701756
0000a0 cd 9b 7a bc be ab d3 3d 40 07 26 bd 99 5b 77 3b
       -0.015295935 0.103354916 -0.040534258 0.0037743805
0000b0 66 2f 0f 3e 63 a9 08 3e 84 a8 ae bd b5 f7 88 bc
       0.13982925 0.13345866 -0.085282356 -0.016719678
0000c0 4f 1d 7b bd 77 27 ae bc fd b6 2e 3d 3d 8f 18 3e
       -0.061307248 -0.021259053 0.04265498 0.14898391
0000d0 66 35 ba bd 1c 7a 93 3d 0f 34 5c bd 00 f4 e3 bc
       -0.09092216 0.07201025 -0.053760584 -0.02782631
0000e0 ad 58 83 bd fc 6b 8f bc a8 c8 fc ba 88 69 49 3d
       -0.06413398 -0.017507546 -0.0019285874 0.049172908
0000f0 17 32 18 3c ab 98 e6 bc 7e 0a 19 bc 43 df 0e 3e
       0.009289286 -0.02814897 -0.00934088 0.13952355
000100 aa 29 2f 3d cf 20 9e bd a8 7a 93 3d 95 06 8d bc
       0.042764343 -0.077211015 0.07201129 -0.017215053
000110 9f 8b 4d bd 89 10 2a bd 9d d9 09 3d 48 2b 90 bd
       -0.05018198 -0.041519675 0.033654798 -0.07039505
000120 15 26 1e bd 74 31 88 bc bc 17 ec 3d 13 9d 1d bd
       -0.038610537 -0.016625144 0.115279645 -0.038479876
000130 a8 10 7b 3d ae af 96 bd 1a 1c f9 3d 58 78 7c 3d
       0.06129518 -0.07357727 0.12163563 0.061638206
000140 87 12 fb 3d 31 e4 1d bd 1c 8f 17 3e 6c 12 f7 3d
       0.12259393 -0.0385477 0.14800686 0.120640606
000150 60 32 a4 bc eb d1 7c 3b 36 be 10 bd d6 f8 25 bd
       -0.020043552 0.003857727 -0.03533765 -0.04052051
000160 20 56 25 3d f5 13 07 3e a7 e9 49 3c 6c 90 49 3c
       0.04036534 0.13191207 0.0123237735 0.012302499
000170 16 b2 2f 3d da e6 2c bd 92 84 f0 bc af e0 05 be
       0.042894445 -0.042212345 -0.02936009 -0.13073991
000180 6d 6f 78 bd f9 fb 81 bc 92 05 b2 3d fa f5 34 3c
       -0.06065314 -0.01586722 0.08692469 0.0110449735
000190 65 c5 60 bd f3 a5 d6 bc c1 47 e0 3c 22 0c 2d 3d
       -0.05487575 -0.026202178 0.027377965 0.0422479
0001a0 4b 9b 21 be 9a 98 dc bc ef b6 b6 bd 63 91 f3 bd
       -0.15781896 -0.026928235 -0.089216106 -0.11892965
0001b0 a6 72 f4 3c 0f 20 f3 3d 6c ba 11 be 85 24 2b bd
       0.029839825 0.11871349 -0.1423127 -0.041782875
0001c0 e0 29 97 bd 6a 09 c1 3d d1 44 1a bd b1 6e ec bc
       -0.07381034 0.09425624 -0.037663285 -0.028861376
0001d0 f3 97 a8 3d 6d bc 85 3d a9 0d 43 3d cd 77 e8 3c
       0.08232107 0.0653008 0.04762045 0.028377438
0001e0 47 2c 39 3d 0f dd 7e bc 37 19 bc 3d 7c 8e d5 3d
       0.04520824 -0.015555634 0.09184497 0.10427567
0001f0 c8 65 1e 3d db be be bc 9a 46 57 bd a4 75 29 3d
       0.038671285 -0.023284366 -0.052557565 0.041371956
000200 c4 c4 2d 3c 04 25 b7 3c 38 e6 c8 bd e2 d9 99 3d
       0.010605995 0.022356518 -0.09809536 0.07512261
000210 f7 b1 be bd c9 42 99 3d 5a 00 44 3d f6 aa e8 3c
       -0.09311288 0.074834414 0.047851898 0.028401833
000220 f7 a3 c1 3d 2d a5 0a be a3 86 cc 3d 76 16 61 bc
       0.09455102 -0.13539572 0.099866174 -0.013738265
000230 be b5 d8 bd c1 27 08 bd 3a 75 45 bd 0b e5 b0 bd
       -0.105815396 -0.033241037 -0.0482075 -0.086374365
000240 b9 24 be bd d3 e2 51 bc 8d a2 8a bd 9c 08 c2 3d
       -0.09284348 -0.012810427 -0.06769285 0.09474298
000250 ae 81 91 3d d0 2c 02 3d 74 e4 a2 bd 0d bd 30 3b
       0.071048126 0.031781018 -0.0795373 0.0026968152
000260 f9 f3 b7 bc 1c 14 ae 3d 56 65 9b bc bb d6 f6 bc
       -0.022455202 0.08499929 -0.01896922 -0.030131688
000270 a9 e6 98 3d c8 4c 5d be 5d 28 80 bd 7e 5c 6f 3d
       0.0746587 -0.21611321 -0.06257699 0.058437817
000280 ca 48 0f 3d a3 77 dc bb eb a0 d0 3c ad 63 29 3d
       0.034981526 -0.006728129 0.025467357 0.041354824
000290 9a f3 93 bb 24 fe d1 bc c9 ea 74 bd 7a 89 b9 bd
       -0.0045151236 -0.025633879 -0.05979422 -0.09059425
0002a0 f4 0a 8e bd ff 6a a5 bd 67 19 7a bd e7 4f d4 3a
       -0.06935683 -0.080770485 -0.06105938 0.0016198129
0002b0 20 7e d0 3d 65 15 a9 3c 65 f1 10 3d ec 86 9e 3b
       0.101803064 0.020640085 0.03538646 0.0048378613
0002c0 1c d5 8a bd 31 9d 88 3d 73 fa af bd fa b9 61 3c
       -0.06778929 0.06670607 -0.08592691 0.01377725
0002d0 c5 ba 1a bd 14 4e 6c 3d 4b 88 ff bd 9a 7b 04 3d
       -0.037775774 0.05769165 -0.12477168 0.032344438
0002e0 54 bb 70 3d fa 12 82 bd 99 73 24 bd e8 03 7e bd
       0.0587724 -0.06351276 -0.040149305 -0.062015444
0002f0 e7 82 4b bd 77 6a 85 3d 2d 2a da bc 34 d3 53 bb
       -0.049685385 0.06514447 -0.02663144 -0.0032321932
000300 37 c2 dd 3c dc 4c 08 3d 4a 17 99 ba 3d 15 bd bc
       0.027070148 0.033276424 -0.0011679914 -0.023081416
000310 e9 64 3e bd 13 2a 97 3d 60 24 35 3e 6d 69 ae bd
       -0.046482954 0.07381072 0.17689657 -0.08516202
000320 59 c0 e6 3d 69 13 63 3d 63 76 a3 3c 7d 87 74 bd
       0.11267156 0.055438433 0.019953912 -0.059699524
000330 c2 e1 1c 3d 69 f4 2b bd 1f 28 d1 3d 07 30 61 bd
       0.038301237 -0.041981135 0.102127306 -0.054977443
000340 88 2b 0a bc 92 cb 14 3d f3 f0 0e bd 5f 43 89 3d
       -0.00843323 0.036326952 -0.034897756 0.06702303
000350 e6 3d 85 bd 80 64 18 bd af ed 2d bd b4 88 bc bd
       -0.06505947 -0.03720522 -0.042463 -0.092057616
000360 e5 63 9f bd f3 25 24 bd 44 ac fc bc 0c cf 9e 3d
       -0.07782725 -0.040075254 -0.030843861 0.07754335
000370 26 67 0a bd eb ba 35 bd 45 fa a4 bc af 98 c6 bd
       -0.033789776 -0.044367712 -0.020138869 -0.09697091
000380 da 93 fb bd 7c cc fe bd ad 1e 9a bd ea 01 b2 bd
       -0.1228406 -0.12441346 -0.07525382 -0.08691771
000390 61 49 af bd 4c 7a c9 bc 3a f9 04 3e e8 ef 28 bd
       -0.08558918 -0.024594449 0.12985697 -0.041244417
0003a0 8a 37 69 bd 87 5f c6 bc c0 ea e3 bd 56 b5 2a 3c
       -0.05693773 -0.024215473 -0.111287594 0.01041921
0003b0 44 31 31 3d 8c f1 3a 3d 8e ad 3c bd d7 64 8e bc
       0.043259874 0.045640513 -0.046063952 -0.017382069
0003c0 90 93 b1 3d 08 ef 1b bd eb 68 25 3c f9 c2 10 3d
       0.086707234 -0.038069755 0.010095815 0.03534219
0003d0 bd c6 e2 3d 48 87 d5 bd a2 6e 8d 3a 42 8a 16 3e
       0.110730626 -0.104261935 0.0010790417 0.14701179
0003e0 9c e7 e9 3c 97 c8 b4 bc 98 2a 80 bd df 75 53 bd
       0.028552823 -0.022068305 -0.06258124 -0.051626083
0003f0 a1 55 13 be f0 c9 6f bd 16 d0 9f 3b e7 78 ac bd
       -0.14388134 -0.058542192 0.0048771007 -0.08421498

lstm.weight_ih_l1 f4 [512, 128]
000000 2a 21 01 3d 29 51 29 3e 8a f0 e5 bd 8f 1c 01 be
       0.03152577 0.16534866 -0.1122752 -0.1260855
000010 a6 35 6a bd db 39 05 be 67 55 b4 bd fa aa b0 3c
       -0.05718007 -0.13010351 -0.08805352 0.021565903
000020 85 d4 aa bd f5 f9 d1 3d 3f 9c ff 3c 1b d1 e2 3b
       -0.08341316 0.10252754 0.031202434 0.0069219
000030 0a ad c6 bd b4 93 29 3e 76 2c fb 3c f8 57 38 3c
       -0.09700973 0.1656025 0.030660849 0.011251442
000040 e3 b0 9c bc ff ab 1f 3e 42 17 5a bd a6 7f d9 3c
       -0.019127315 0.15592955 -0.053244837 0.026550125
000050 fe 15 49 3d f4 9d 2b 3e 77 0a fe 3b 94 b7 31 bd
       0.04909324 0.16759473 0.0077527124 -0.043387964
000060 90 8f 15 3d 2b 63 54 3b ca 3f d5 3c f3 7a 92 3d
       0.036513865 0.0032407742 0.026031394 0.07152357
000070 70 6a 6c bd 84 33 ed 3b 0c b9 4e 3c 26 df a9 bd
       -0.057718694 0.007238807 0.012617361 -0.08294515
000080 56 58 8f 3d 74 ef cd 3d e0 2f 47 3e a1 9f 5b 3e
       0.069992706 0.10055438 0.19451857 0.21447612
000090 85 87 91 3d 63 fe 0d 3b c8 d9 ac bd 7a f2 9b bd
       0.071059264 0.002166652 -0.08439976 -0.07614608
0000a0 15 e3 d4 bd 64 91 e3 bb d4 96 18 3c b3 fb df bd
       -0.10394875 -0.006944822 0.009313304 -0.1093668
0000b0 c6 f7 d3 3d 45 75 c2 3d e1 ce ad 3d 95 cc 04 be
       0.103499934 0.09495024 0.08486725 -0.12968667
0000c0 4e f7 da 3c 63 89 b6 3d f4 ba 9c bd 2c 28 f5 b9
       0.026729252 0.08912923 -0.07652846 -0.00046759972
0000d0 f6 a9 68 3c 12 0c 67 bd 75 d3 85 3d f9 2f 85 bd
       0.014200678 -0.056407996 0.06534473 -0.06503291
0000e0 f2 89 10 3d a0 cd 7c 3d b1 85 52 3c fc 2e 01 bd
       0.035287805 0.061719537 0.012849257 -0.03153895
0000f0 4d b4 1e bd 60 f2 55 bb 30 6d 25 3c e3 f9 9b bc
       -0.038746167 -0.0032645687 0.010096833 -0.019040054
000100 54 04 3b b9 c8 35 b8 3c f8 3a 0a 3d f6 94 52 bc
       -0.00017835322 0.022486582 0.033747643 -0.012852898
000110 91 d8 ac bb 6f 98 fc bd 32 14 8d 3c b8 da 0f bd
       -0.00527484 -0.12333762 0.017221544 -0.035120696
000120 72 69 cf 3d 77 76 3f 3c 85 6b c8 3d 4a f5 88 bb
       0.10127534 0.011685959 0.09786133 -0.0041796314
000130 32 c5 07 be 9f f5 ed 3c b5 b8 57 bd 4d b5 22 3d
       -0.13258818 0.029047785 -0.052666385 0.039723683
000140 df 3f a3 3c 22 29 eb 3d 3e 03 fc 3c 90 ae 73 3d
       0.019927917 0.11482455 0.030763265 0.059492648
000150 6e ff 33 bc 42 ee 56 bd ff 7a 9f 3d bc fa 52 3d
       -0.010986192 -0.052473314 0.077871315 0.05150865
000160 e7 cf 8a 3d 42 f5 88 3d f9 18 f8 bd c2 a1 b8 bc
       0.067779355 0.06687404 -0.12114138 -0.02253807
000170 31 2c 8f 3d 2f d6 ef bd 2c fb ad 3d 71 69 66 3c
       0.06990851 -0.11710774 0.08495173 0.014063225
000180 dc f2 a4 bc d2 e2 b0 3d c7 0d 8b 3d e1 62 37 3a
       -0.020135336 0.086370125 0.06789737 0.000699563
000190 09 68 f7 bc 90 67 a1 bd 73 8c 86 bc 35 0c fe bc
       -0.030200975 -0.07881081 -0.016424393 -0.03101168
0001a0 64 6b 5b bc 42 e8 9e 3b ee 85 95 bd a0 ba a2 bc
       -0.013392303 0.0048494646 -0.07300936 -0.01986438
0001b0 2c 86 b3 bd 48 5d 87 3d fb f0 0e 3d 98 ea 97 3d
       -0.08765826 0.06609589 0.034897786 0.07417792
0001c0 57 5c 64 3d 71 6b 8b bd b7 b5 a4 3d 97 6d 22 3d
       0.055752125 -0.06807602 0.08042472 0.039655294
0001d0 9c e4 ab bd 8a 10 91 bd 25 de b6 bc 8c d9 33 3d
       -0.08393213 -0.07083233 -0.022322724 0.04390864
0001e0 8d 1c c8 bd 3a a8 c8 3b 3c ed d6 3d f1 e8 48 3e
       -0.09771071 0.00612357 0.104944676 0.1962011
0001f0 16 cf de 3d 52 65 ea 3d 3f 40 b5 bd f8 c9 d7 3d
       0.10879342 0.114451066 -0.088501446 0.10536569
000200 71 2d 50 3d 11 76 11 3e ae 3f d0 bd 0a 66 0e be
       0.050824586 0.14205195 -0.10168396 -0.13906112
000210 1e 33 1a be 77 33 ee 3c e8 e6 89 bc 06 b4 62 bd
       -0.15058562 0.029077275 -0.016833737 -0.055347465
000220 4b ff d1 bc a3 bc f0 3d d5 a7 48 3d e8 79 a6 3d
       -0.025634428 0.117547296 0.048988182 0.081287205
000230 56 79 85 bd 52 1b c9 3d 32 a5 8f bc f2 7d d0 3d
       -0.065172836 0.09819664 -0.017534826 0.10180272
000240 28 43 25 3d 7e 35 06 3e e4 ab 01 3c c3 62 3d 3b
       0.04034725 0.13106343 0.007914517 0.0028897978
000250 d5 5c ba 3c be b4 69 3b 4d b7 c4 3b 13 9e 38 be
       0.022749344 0.003566071 0.0060032965 -0.1802905
000260 04 b4 c2 bd b5 3e 48 3d cd 07 a1 3d 83 9f ed bd
       -0.095069915 0.048887927 0.07862816 -0.1160269
000270 62 65 b2 bd aa 88 1b be af 16 0b 3e ae 4b ae 3d
       -0.087107435 -0.15188852 0.13582872 0.085105285
000280 26 d3 0d 3c cd aa 01 3c 6a 13 05 be e1 94 15 3e
       0.008656299 0.007914257 -0.12995687 0.14607574
000290 b1 f8 49 3d 55 33 be 3d f4 39 ba 3c c1 25 05 3d
       0.049309436 0.092871346 0.022732712 0.032506708
0002a0 f9 9c f9 3d 25 44 87 3b f1 c1 31 be d3 f1 a2 3d
       0.12188143 0.0041279965 -0.17359139 0.079562806
0002b0 be ee 33 bc 76 62 be bd d1 1d 9c bc a5 5d 41 bd
       -0.010982214 -0.09296124 -0.019057186 -0.047208447
0002c0 bd 70 8f bd 55 fa 77 bd 54 5e a7 3d 19 71 45 be
       -0.07003925 -0.06054147 0.081722885 -0.19281425
0002d0 97 95 68 bd bd 46 f3 3d 4c 95 c6 3c d6 ea 53 3d
       -0.056783285 0.11878727 0.024241112 0.05173763
0002e0 57 e2 5f bd 5b fd ef bd ab 00 80 3d 35 b3 09 3e
       -0.054659214 -0.117182456 0.062501274 0.13447268
0002f0 c2 3b 29 bd a3 a9 37 3d 8e 65 40 bd f5 7f 64 bd
       -0.041316755 0.044839513 -0.04697185 -0.05578609
000300 4b ff 3f 3e 0a b6 6f 3c ee 9f 12 3e ec c1 d0 3c
       0.1874973 0.014630804 0.14318821 0.025483094
000310 15 f8 cf bd cf f2 e5 bd fb b7 67 3b d0 3a b2 3d
       -0.1015474 -0.11227953 0.0035357464 0.08702624
000320 c8 9e 49 3d cf 70 90 bd e7 19 b8 3d d6 5f ab 3d
       0.04922369 -0.070527665 0.089893155 0.08367889
000330 34 27 75 bd 5a b3 bf 3d f8 8a 93 bd 35 7d 66 3c
       -0.05985184 0.093603805 -0.072042406 0.014067938
000340 c5 16 c4 3d 04 d9 42 3e da cd 18 be 8d 3c ea bd
       0.095746554 0.19028097 -0.14922276 -0.114373304
000350 e4 39 8e 3c 42 b7 ab 3d 63 7c 9a 3d 40 f2 58 3d
       0.017361589 0.08384563 0.07543256 0.052965403
000360 41 7d 8b 3c e1 f8 bf bd 80 d5 9e bd 0d ff a3 bd
       0.0170275 -0.09373642 -0.07755566 -0.080076315
000370 2e d6 d1 3d 23 e9 bf 3d 08 04 8a 3d e2 f1 95 3c
       0.1024593 0.09370639 0.0673905 0.018303815
000380 d0 22 a9 3b e4 41 02 be 1c 70 7e 3b 94 4c cd bc
       0.0051616207 -0.12720448 0.0038824147 -0.02506093
000390 bc 24 c1 bc 40 2f 91 bd 8a 8e 73 3c 4c 1a 99 bc
       -0.023577087 -0.0708909 0.014865527 -0.018689297
0003a0 87 71 43 3d ee 8a 37 3e 47 4d 1d 3e 6d cd 73 3d
       0.04771569 0.17924091 0.1536151 0.05952208
0003b0 09 1f 95 bd aa 63 c9 bd db 06 9f bd 68 ec 4c 3c
       -0.0728131 -0.098334625 -0.077649795 0.0125075355
0003c0 ef 04 12 3d 26 b1 de 3d 96 af 47 bc 8d 97 52 be
       0.035649236 0.10873632 -0.012187859 -0.20565625
0003d0 92 63 fb 3d 31 5e 21 be d5 ca 9e 3d 04 48 00 3e
       0.12274851 -0.15758587 0.07753531 0.12527472
0003e0 98 fe 59 3c 86 b0 de bd 1b 4b a6 bc f3 82 e2 3d
       0.013305329 -0.10873513 -0.020299485 0.11060133
0003f0 27 86 02 3e 11 31 45 3d 34 93 79 bd a4 2a 99 3d
       0.12746488 0.048142496 -0.0609314 0.07478836

lstm.weight_hh_l1 f4 [512, 128]
000000 48 34 a8 bd 04 56 ab 3c 85 02 af 3d bc 5d 28 bc
       -0.08213097 0.020915039 0.085454024 -0.010276254
000010 06 ea 7e bd f5 ab 90 bd a8 f7 2b 3d b8 ab 4d bd
       -0.0622349 -0.07064048 0.04198423 -0.050212592
000020 38 6c b0 3d 79 e3 9d 3c 99 6e 2b bd af 2f b4 3c
       0.08614391 0.019273506 -0.04185352 0.021995394
000030 e2 28 37 bc d2 4b 11 3e 21 4f fb 3c 7c 83 b1 3d
       -0.011179181 0.1418908 0.03067738 0.08667657
000040 63 27 c8 3c 1e ec 2c 3d 53 a3 84 bd 68 71 37 bd
       0.024432844 0.042217366 -0.06476464 -0.044785887
000050 07 3d 89 3d 19 30 ab bd 30 82 45 3c 77 cf b0 3d
       0.06701093 -0.08358783 0.012054965 0.08633321
000060 6a 13 12 3e da c9 6c bb 35 34 ad bb 40 46 92 3a
       0.14265218 -0.0036131055 -0.0052857646 0.0011159852
000070 ce 61 30 3d 37 1f 0f bd 60 5e 91 bd 7f 16 0a 3e
       0.043062024 -0.03494188 -0.07098079 0.13485144
000080 9a 0e 68 bc 65 74 88 bd 29 69 0e bd 25 2e 93 bd
       -0.0141636375 -0.066628255 -0.034768257 -0.07186536
000090 aa 98 1a 3c af 57 fb 3c 1e 4f bc 3d e3 58 87 bd
       0.009435812 0.03068146 0.09194778 -0.06608751
0000a0 a9 87 cb 3d 66 97 1c bc cd 56 97 3c 73 5e ce 3b
       0.099379845 -0.009557581 0.018474007 0.0062978803
0000b0 24 79 bc bb 98 92 99 bd 3d ba aa bd aa 1d 1e 3d
       -0.005751746 -0.07498664 -0.083363034 0.03860251
0000c0 29 a5 7e 3d 71 2f 69 bd d3 4b 03 3d 89 a3 9c bd
       0.062169228 -0.05693001 0.032054733 -0.07648379
0000d0 58 e3 98 ba eb 8a c2 bd ff 8f 1d 3d c6 62 db 3d
       -0.0011664433 -0.09499153 0.038467404 0.10712199
0000e0 ab 06 2e bc 9f 4a 86 bb 29 55 71 3d 43 f9 bf bc
       -0.010621707 -0.004098251 0.058919106 -0.023434287
0000f0 0a 4e d8 3d d3 c6 72 bc 27 54 aa 3d 40 09 6d bd
       0.1056176 -0.014817911 0.08316832 -0.05787015
000100 42 cd 0d bc 22 c0 1b bd 7d 33 5b bd ec 67 4b 3b
       -0.008654894 -0.03802503 -0.0535159 0.0031037284
000110 7f df 88 ba 16 fe 71 bd 02 49 89 bd 02 1f 95 bc
       -0.0010442584 -0.059080206 -0.06703378 -0.018203262
000120 4d 33 b7 ba 6c 50 81 bc fb 3e ff ba 2d 40 21 bd
       -0.0013977081 -0.015785418 -0.0019473726 -0.039367843
000130 22 99 91 bd 05 93 50 bc a3 bb 7f bd 64 f0 16 bc
       -0.07109286 -0.012730365 -0.062434804 -0.009212587
000140 be e9 46 bd 15 4e cf 3d 90 01 5a bd 8f d5 c4 bd
       -0.048562758 0.10122315 -0.053224146 -0.096110456
000150 11 48 cf 3d 56 12 af bd ad 63 d2 bc 4b 8f 4b 3d
       0.101211675 -0.08548419 -0.025682295 0.0496972
000160 13 33 7e bc 0a c5 b5 3c 48 9c ed bd 73 f3 50 bc
       -0.015515107 0.022188682 -0.11602074 -0.012753355
000170 4c 4d 09 be a4 bc a6 bd 93 9f ab bd 83 61 1f bc
       -0.13408393 -0.08141449 -0.08380046 -0.009727838
000180 1d ff 31 bd 83 0c 19 3b 8c a9 0b 3c 83 94 be bd
       -0.043456186 0.0023353405 0.00852431 -0.0930567
000190 b0 f8 d6 bd f4 a6 a2 3c e8 fd 48 3c bf 06 2b bd
       -0.10496652 0.019855 0.012267567 -0.04175448
0001a0 78 d3 bc bd 2b c9 0f 3e f6 ee d8 bc e5 19 e6 3b
       -0.09220022 0.14041583 -0.026481133 0.00702213
0001b0 23 1e 7e 3c b7 29 cb bd 23 78 8c 3d c8 ed 4b 3d
       0.015510115 -0.09920066 0.06858852 0.049787313
0001c0 b8 81 cb bc 52 71 9b bd 0d c8 60 b9 b0 24 05 be
       -0.024842128 -0.075899735 -0.0002143683 -0.13002276
0001d0 97 8d c6 3b a6 bb 89 bc e0 61 96 ba 63 77 a2 bd
       0.0060593593 -0.01681311 -0.0011473261 -0.079329275
0001e0 8a 4d 9a bd 10 b2 38 bd 4f ef 43 bd 61 a7 c5 3d
       -0.07534321 -0.04509169 -0.047835644 0.096510656
0001f0 38 6c 89 bd 01 45 16 3d 82 24 db 3d c5 05 a0 3d
       -0.06710094 0.0366869 0.10700323 0.078136005
000200 d8 08 fe bd 79 29 83 3d e2 60 44 3d 93 97 4d be
       -0.124040306 0.06404395 0.047943957 -0.20077352
000210 ce d8 b0 bc f0 84 b9 3c c4 77 54 be 08 a4 d2 3d
       -0.021587756 0.022646397 -0.20748812 0.10285193
000220 e5 24 eb bc 7a a1 78 3c 47 1e 19 be 01 aa 6e bc
       -0.028704116 0.015175218 -0.14952956 -0.014566899
000230 e2 33 b6 ba 3a 0c d0 3d 2b a9 c0 bc 25 6a 7e bd
       -0.001390096 0.10158582 -0.023518166 -0.062112946
000240 b5 c5 cf bc 22 e4 0e bd 16 7e 20 3d 94 67 ea 3b
       -0.025362829 -0.034885533 0.039182745 0.0071534608
000250 47 40 86 3d ae 8e 6c 3c 56 1f 2f 3e 8b 30 f3 bc
       0.06555229 0.014438314 0.17101797 -0.029686233
000260 99 2d eb 3d b3 88 2f 3e d1 fc 6c 3c 01 4c e6 3c
       0.114833064 0.1714199 0.014464573 0.028112413
000270 f2 97 37 bd e5 67 4a 3d 9e f5 fa bd 58 0f e2 3d
       -0.04482264 0.049415488 -0.12253879 0.11038083
000280 ff 51 54 3d 21 04 0c 3d f5 ed 90 3d ca 3e 19 bd
       0.05183601 0.034183625 0.07076637 -0.037413396
000290 e0 ca 9e bd ab 65 0c bc cb a4 c6 3c 9b 84 03 3e
       -0.07753539 -0.008569161 0.024248501 0.12843554
0002a0 9e 77 e5 bb c2 59 fd bd f5 9f 6e bc e0 5d 11 bd
       -0.007002785 -0.123706356 -0.014564504 -0.035489917
0002b0 3f 16 bd bc 7f 72 4b bc c6 9f 61 bd e7 ab f3 3c
       -0.023081897 -0.012417435 -0.055084012 0.029745055
0002c0 ed fd 8d bc 1e 99 b3 3d ce 2b 88 3d 8c cc b6 bb
       -0.017332995 0.08769439 0.0664898 -0.005578583
0002d0 01 f5 0e 3d b3 bc 0d bd ec 89 8e 3d c6 a1 2a 3e
       0.034901623 -0.034603786 0.069599 0.16663274
0002e0 95 eb 67 3d a7 20 b1 bd ed 9c 20 be 53 92 92 3c
       0.056621153 -0.08648806 -0.15684862 0.017892038
0002f0 24 d5 0f 3e 23 16 0b be 3b 16 05 3d c0 4c 71 bd
       0.1404615 -0.13582663 0.032491904 -0.058911085
000300 4a 95 eb ba 99 66 88 bd db b0 52 3c e5 16 fe bb
       -0.0017973569 -0.06660194 0.012859548 -0.007754194
000310 a5 d6 8f bd e3 fa 7e 3d 2e 54 2d 3e 0c 98 85 bc
       -0.07023362 0.062250983 0.16926643 -0.016307853
000320 32 4b 91 3d d7 f7 53 bd 7e 05 2c 3d 98 7f 7d bc
       0.070944205 -0.05175003 0.041997425 -0.015472315
000330 ce c4 0c 3d 2a 4e 71 bc f8 d3 1b 3d 2d 8f 3a 3c
       0.034367375 -0.014728108 0.038043946 0.011386675
000340 0b 69 58 bd 6b 46 14 bd 89 69 38 3e 85 34 24 3d
       -0.05283455 -0.03619997 0.18009008 0.04008915
000350 23 f2 42 be e1 d5 94 bd 4f 20 fe bb 48 ed e0 3d
       -0.1903768 -0.07267357 -0.0077553163 0.10982758
000360 8e 73 5c 3e 82 03 a5 3c 75 25 5c bc 30 23 ae 3b
       0.21528456 0.020143274 -0.013436665 0.0053142533
000370 1e 77 5e bd 2c d7 34 bd da 44 08 be ae b6 e4 39
       -0.054312818 -0.044150516 -0.13307515 0.00043623656
000380 a4 dd a9 bd 96 0b 06 3e f0 c6 bb 3c a7 dd 3e be
       -0.08294228 0.13090357 0.02292201 -0.18639241
000390 fe a0 c6 bc 7e ff 8a 3c 95 2c 96 3d a4 24 d2 bd
       -0.024246689 0.016967531 0.07332722 -0.10260895
0003a0 c6 f9 17 3c 62 d7 84 bb 94 bc 98 bd 1a 38 b3 3d
       0.009275859 -0.004053996 -0.074578434 0.08750935
0003b0 2b f8 1c bd a7 e6 ce bc 89 bb 3a 3d 54 cc 79 bd
       -0.03832261 -0.025256468 0.045589004 -0.060985878
0003c0 63 8b 2c 3d 27 54 43 bc 78 6a 62 3d 99 43 c2 bd
       0.042125117 -0.011921919 0.055277318 -0.094855495
0003d0 09 3c 76 bd 6f 24 24 3c ff 3a 88 bc 6c 31 1b be
       -0.060115848 0.010018452 -0.016629694 -0.15155572
0003e0 6e 40 b1 bd e9 f8 17 3d d9 60 59 3d 56 06 b4 3d
       -0.08654867 0.037102614 0.053070877 0.08790271
0003f0 a6 c6 3d bc bf ca 77 be b0 34 25 bd 21 17 79 3d
       -0.011583006 -0.24198435 -0.04033345 0.060813073

lstm.bias_ih_l1 f4 [512]
000000 9a 01 8e bc 58 fe 90 bd f8 2f aa bc a2 b9 45 3c
       -0.017334748 -0.07079762 -0.020774826 0.012068184
000010 7f 43 b3 3b 0f 38 06 3e 54 4f ac bd 0a 00 47 3d
       0.0054706926 0.13107322 -0.08413568 0.04858402
000020 0c 3f 44 3d ea 8f e2 3d 08 94 0d 3c 59 a7 1e 3c
       0.04791169 0.11062606 0.00864125 0.0096834535
000030 e8 13 2a bc af b1 c3 3d 94 6e b3 bd 3c e9 6c bd
       -0.010380723 0.09555375 -0.087613255 -0.057839617
000040 16 24 3e bd b1 7a 43 bd 33 fc c1 3d 0d c9 95 3b
       -0.046421133 -0.04772443 0.09471931 0.0045710863
000050 78 a1 64 bc 00 50 80 bd c6 1a 33 bd 2c 12 e8 3d
       -0.013954513 -0.06265259 -0.043726705 0.11331591
000060 39 21 ef bc 2a 41 7e bd 12 db 6e bd d0 0d 7c 3c
       -0.029190646 -0.062073864 -0.05831439 0.0153841525
000070 7b 0b 46 3d 54 f0 b0 bc 7e ea 23 3d a4 ec 78 bd
       0.048350792 -0.021598972 0.04001855 -0.060772553
000080 a9 fe 12 bc af 55 fd 3c 18 49 01 3d ea 47 f1 3d
       -0.0089718485 0.030924646 0.03156385 0.11781295
000090 63 01 f1 3d 87 20 2a bd 36 8f 90 bd 83 24 9f 3b
       0.117678426 -0.041534927 -0.07058565 0.0048566475
0000a0 6e f7 ad bc 84 98 a4 3d 89 9f 5e bd 6e 64 fb bc
       -0.021236148 0.080369025 -0.054351363 -0.030687537
0000b0 be 00 b3 bc 05 7d 8d bd 34 51 8e 3d 9c 4e b4 3c
       -0.02185094 -0.06908611 0.06949082 0.02201014
0000c0 f7 da 9d 3d 91 f6 87 3d 1a 32 a6 bc 20 19 ad 3d
       0.0770778 0.06638826 -0.020287562 0.08452058
0000d0 ca 26 07 3e 38 0f 0f bd ea 83 c7 3d a6 9c 34 3d
       0.1319839 -0.034926623 0.097419575 0.044094704
0000e0 6c bf 39 3d c0 c3 5c 3d a7 b4 31 bd 76 1c 84 3d
       0.04534857 0.05389762 -0.043385174 0.06450741
0000f0 f7 9c 3d 3d 65 93 92 3d 30 b6 68 bd 64 de be 3d
       0.04629227 0.071570195 -0.056814373 0.093197614
000100 74 a7 9d 3c 57 cd 3e bd 25 e6 7b 3d b7 36 eb 3c
       0.019244887 -0.046582546 0.06149878 0.028712614
000110 ff b7 96 3b ce 29 ce 3d ce 97 af bd 03 75 34 3d
       0.0045995708 0.10066567 -0.08573876 0.044056904
000120 ec 72 52 bd fc 0d cf 3c ee 23 26 3d a3 7a 23 3e
       -0.05137913 0.025275223 0.04056161 0.15964751
000130 0c e7 ce 3d 7c 58 d5 bd 3e 52 43 3e 52 bb 94 3d
       0.101026624 -0.10417268 0.19074342 0.07262291
000140 fe ae 4a bd 51 b9 c6 bd 9e e5 04 3c 92 ba 4c bd
       -0.04948329 -0.09703315 0.008111386 -0.049982615
000150 fb 84 a5 3d f4 6f af 3d 37 47 a6 3d 6a 9a 3d 3c
       0.08082005 0.08566275 0.08119052 0.01157246
000160 ae c4 af 3d fb a9 39 bd 3d ab f2 3c 6c 90 aa 3d
       0.085824355 -0.04532812 0.029622668 0.083283275
000170 e8 66 59 bd 66 43 06 3d c1 a4 ae 3d ad 34 0c bd
       -0.053076655 0.03277912 0.08527518 -0.034229923
000180 71 ae 08 3b f1 00 1c bd 9f 03 11 3d 6c aa d2 3d
       0.0020855928 -0.038086835 0.035403844 0.10286412
000190 15 08 de bb 5f 15 45 bd 22 bb 51 bb 3f 46 0e be
       -0.006775866 -0.048116084 -0.003200241 -0.13893984
0001a0 2e fa 76 3d 68 34 17 3e e6 78 04 bb 0b 96 d9 3c
       0.060297184 0.14766085 -0.0020213663 0.026560804
0001b0 b3 cb 5f bd 3e a4 6f bd 55 66 1b be 0e 25 42 bd
       -0.054637622 -0.058506243 -0.15175755 -0.04739862
0001c0 ef d7 36 3d 13 5e 09 be 56 b3 21 3d 67 e5 01 3d
       0.044639524 -0.13414793 0.03947767 0.031712916
0001d0 2f 16 1f 3e 59 b5 a1 3d 5a 24 13 3c 49 34 28 bd
       0.15535806 0.078959174 0.008980835 -0.041065488
0001e0 65 37 86 3d 05 96 95 3d f3 60 8e 3d db 4f 03 3d
       0.065535344 0.073040046 0.06952085 0.032058578
0001f0 77 0f a4 bc 09 6d a1 3d bf 0b a5 bd 67 e9 8b 3d
       -0.020026905 0.07882125 -0.08058881 0.06831627
000200 27 fd 82 bd d4 a7 01 3e 29 55 0e 3c 2b 0f 56 3e
       -0.06395941 0.12661678 0.008687296 0.20904224
000210 03 3d a6 3d 02 9c 92 3d f0 b0 1d bd f5 e5 ec 3d
       0.08117106 0.071586624 -0.03849882 0.11567298
000220 ec 3b 37 3d 5b a5 85 3c 13 5b 75 bd 0c 31 ae bc
       0.04473488 0.0163142 -0.05990131 -0.021263622
000230 97 f9 2e 3e fd 6c 53 3d 51 e0 2b 3e 75 0a e2 3c
       0.17087398 0.05161761 0.16784789 0.027592877
000240 31 b1 29 bc ec 30 ca 3d 3c a2 70 bd 13 c9 64 bd
       -0.010357187 0.09872612 -0.05874847 -0.05585582
000250 c6 ef 56 3c b6 e5 aa 3e 25 88 53 bd 34 8f fa 3d
       0.01311869 0.3337838 -0.05164351 0.12234345
000260 5b e1 cc 3c 30 1f 82 3d f1 d9 50 3c 0a 1e ca bc
       0.025009802 0.06353605 0.012747274 -0.024672527
000270 0a 76 45 3d 10 40 3d 3c 0a e6 91 bd 64 0e 06 3e
       0.048208274 0.011550918 -0.071239546 0.13091427
000280 00 c8 73 3d 18 eb 14 3d 51 50 8f bb a6 f9 b5 3d
       0.059516907 0.036357015 -0.004373588 0.08885507
000290 c1 8c 26 3e b7 62 89 3d 87 28 19 3e d2 74 00 bd
       0.16264631 0.067082815 0.14956866 -0.03136141
0002a0 89 af 8a 3c 56 bd fa 3b de 77 97 3d ad 20 01 3d
       0.016929405 0.007651965 0.0739591 0.031525303
0002b0 16 2b 84 3d dc c3 07 3d bc 87 0e 3e 5f 93 31 3d
       0.064535305 0.03314577 0.13918966 0.043353435
0002c0 44 e9 4e 3e 94 e6 13 3e 62 2b 20 bb 6e 48 14 bc
       0.20206171 0.14443427 -0.002443992 -0.009050472
0002d0 73 3c 13 3e c1 f2 9d bc d4 84 5e bd 73 39 08 be
       0.14378528 -0.019280793 -0.054325894 -0.13303165
0002e0 29 7c ad bc 71 8b d7 3d 4a 6c 16 3d e0 87 2a bc
       -0.021177368 0.10524643 0.036724366 -0.010408372
0002f0 fb b7 8b 3c 03 1a 00 3c 3c dd 68 bc 16 35 41 3d
       0.017055502 0.007818702 -0.014212903 0.047169767
000300 2c 19 4c 3d 95 2b 6e 3e dd 40 6c 3d eb 07 16 3d
       0.049828693 0.23258813 0.057679046 0.036628645
000310 5c 01 e2 3b c0 58 a4 3d 0c c9 26 3d 45 33 92 bd
       0.0068971347 0.0802474 0.040719077 -0.07138685
000320 72 8d 97 bd e8 1f 70 bc 64 fb 21 3c 9a e9 3c 3e
       -0.074000254 -0.014656045 0.009886596 0.18448487
000330 6a b8 84 3d ee 50 94 bc 24 d1 b6 3d ad e6 14 3e
       0.06480487 -0.018104997 0.08926609 0.14541121
000340 f5 67 0a bd 2e 69 80 3d 9e f3 c8 bc 4b 0d 1f 3d
       -0.033790547 0.062700614 -0.024530228 0.038831037
000350 87 3e cf b9 6c 63 09 bd 03 63 3d 3d b0 ca 02 3d
       -0.00039528703 -0.03354208 0.046237003 0.03193158
000360 1e 38 0c 3d a3 17 25 bd 32 70 93 bc f3 a9 a0 3d
       0.034233205 -0.040305745 -0.017997835 0.07844915
000370 bc cb b8 bd 42 07 e5 3d 38 b3 1b 3e b9 b1 d5 3d
       -0.09023234 0.11183025 0.15205085 0.104342885
000380 99 62 cc 3d cf 0c 2c 3d 72 48 f6 bb f0 e1 80 3c
       0.099797435 0.042004403 -0.0075159604 0.015732735
000390 1a c6 53 bc e0 a8 20 3d ab 44 4f bd 92 de 2d be
       -0.012925649 0.03922355 -0.050602596 -0.16979435
0003a0 e6 be 19 3e bc a9 89 bc d1 fb a4 3d 70 4e 22 bc
       0.15014228 -0.016804568 0.08055843 -0.009906396
0003b0 7d 95 0d 3d 26 26 01 bd 36 96 82 3e c7 82 c6 3c
       0.03456639 -0.03153052 0.25505227 0.024232281
0003c0 03 af d8 bc 37 a1 6e 3c c8 07 36 3d e7 5f cb 3d
       -0.02645064 0.014564804 0.044441015 0.09930401
0003d0 ce 62 43 3e 99 33 66 bc 89 b2 5a 3d c6 8a e5 3c
       0.1908066 -0.014050388 0.05339292 0.028020274
0003e0 3a d7 a6 3c c9 39 81 bc f3 a6 d5 bd 2c 01 b5 3d
       0.0203663 -0.015774624 -0.10432234 0.08838114
0003f0 a2 f9 e2 3d 41 eb 26 3d db 3d c8 bd 5e 93 0c 3e
       0.1108277 0.0407517 -0.09777423 0.13728091
